…
', 0.16322623193264008),\n ('layers.9.bias', 0.044430315494537354)]\n\n\n\ndef compute_layer_gradient_norms(model):\n    \"\"\"\n    \n    \"\"\"\n    layer_grad_norms = []\n\n    for name, param in model.named_parameters():\n        if param.grad is not None:\n            grad_norm = param.grad.data.norm(2).item()\n            layer_grad_norms.append((name, grad_norm))\n        else:\n            layer_grad_norms.append((name, 0.0))  # No gradient yet\n\n    return layer_grad_norms\n\nnet.named_parameters\n\n&lt;bound method Module.named_parameters of Network(\n  (layers): ModuleList(\n    (0): Linear(in_features=784, out_features=512, bias=True)\n    (1): Linear(in_features=512, out_features=512, bias=True)\n    (2): Linear(in_features=512, out_features=256, bias=True)\n    (3): Linear(in_features=256, out_features=256, bias=True)\n    (4): Linear(in_features=256, out_features=128, bias=True)\n    (5): Linear(in_features=128, out_features=128, bias=True)\n    (6): Linear(in_features=128, out_features=64, bias=True)\n    (7): Linear(in_features=64, out_features=64, bias=True)\n    (8): Linear(in_features=64, out_features=32, bias=True)\n    (9): Linear(in_features=32, out_features=10, bias=True)\n  )\n)&gt;\n\n\n\nnet.named_parameters\n\n\n# Deep with scheduler\n\nnet = Network([784, 512,512 , 256, 256,128,128,64,64,32, 10])\nsol = train(net, train_loader, epochs=30, mini_batch_size=100, eta=.0003, test_data=test_loader)\n\n\ntrain(net, train_loader, epochs=30, mini_batch_size=10, eta=.001, test_data=test_loader)\n\nTest Accuracy: 97.19%\nEpoch 
…
